disentangle/forget_W.pth (torch, 17633 bytes, 1 tensors)

W.weight f4 [64, 64]
000000 e5 75 40 3f 43 61 31 3f 1f 1b 59 bf ba 49 4e 3f
       0.7517989 0.69289035 -0.8480701 0.8058125
000010 cb cb 2b 3f a2 30 5a 3f ef 0b 49 3f a3 0c 1d bf
       0.6710784 0.8523046 0.78533834 -0.6134741
000020 c0 ec 31 bf 1a d7 3f bf 63 42 31 bf 59 25 4e 3f
       -0.69501877 -0.74937594 -0.69241923 0.8052574
000030 b6 eb 2f bf 44 f0 45 bf a8 67 30 bf d3 8e 29 bf
       -0.6871904 -0.7731974 -0.68908167 -0.6623356
000040 61 61 3a 3f 20 27 58 bf 10 0a 3c bf 5c f4 51 3f
       0.7280484 -0.844347 -0.73452854 0.8201349
000050 f3 d6 37 3f e9 dd 59 bf bd 5e 4d 3f 7b 29 60 3f
       0.7181236 -0.85104233 0.80222684 0.87563294
000060 f8 fc 44 bf a1 17 51 bf e3 d3 3c bf 56 35 43 bf
       -0.769485 -0.8167668 -0.73760813 -0.7625326
000070 3d 09 52 3f d1 36 37 3f 45 34 52 3f f0 59 28 bf
       0.82045346 0.7156802 0.82111007 -0.65762234
000080 e4 b1 3a 3f dd b3 61 3f 26 da 40 bf 7e 87 18 3f
       0.7292769 0.88165075 -0.7533287 0.59581745
000090 5f 9c 26 bf a3 e9 62 3f bd ec 3e 3f e9 ac 39 3f
       -0.65082353 0.8863775 0.74579984 0.72529465
0000a0 89 51 30 3f b0 cd 4a 3f 5c 65 1f 3f 01 48 49 bf
       0.6887441 0.79220104 0.6226404 -0.78625494
0000b0 57 4b 4e bf 0b 20 5b 3f 9d 80 36 3f ef b7 4a 3f
       -0.8058371 0.8559577 0.7129 0.7918691
0000c0 b2 44 2d 3f d4 0d 52 3f 41 6a 5a 3f a5 d3 5a 3f
       0.67682946 0.8205235 0.8531838 0.85479194
0000d0 86 0f 48 3f 72 12 3c bf 95 78 2b 3f 8d 71 5b bf
       0.78148687 -0.73465645 0.6698087 -0.8572014
0000e0 bf 85 3b bf bf f9 4d bf a6 14 19 bf 88 77 4a 3f
       -0.73250955 -0.8045921 -0.5979713 0.7908864
0000f0 02 c4 54 3f e3 a2 5d bf 6d 87 57 bf 91 89 27 bf
       0.83111584 -0.8657667 -0.8419102 -0.65444285
000100 c9 ab 53 bf 24 06 44 bf 52 07 55 3f 72 65 43 bf
       -0.82684 -0.7657187 0.83214295 -0.7632667
000110 08 20 2e bf 9e 34 42 bf d2 82 29 bf 8e 85 4b 3f
       -0.68017626 -0.7586154 -0.6621524 0.79500663
000120 66 c1 26 3f 39 66 28 3f d6 da 57 3f 6d 93 4a bf
       0.6513885 0.6578098 0.8431829 -0.79131204
000130 58 ce 36 3f 47 84 26 3f 09 aa 2d 3f ec ad 5e 3f
       0.71408606 0.6504559 0.6783758 0.86984134
000140 47 cc 45 bf 28 bf 2e 3f 54 bb 56 3f 97 c1 52 bf
       -0.7726483 0.6826043 0.8387959 -0.82326645
000150 38 f5 57 bf 7a a0 47 3f 9d 63 44 bf de 51 5e bf
       -0.8435855 0.7797924 -0.767145 -0.8684367
000160 6b 09 59 3f 30 58 4b 3f 54 51 5d 3f 01 e1 42 3f
       0.84779996 0.7943144 0.8645222 0.7612458
000170 39 8f 47 bf 3f b9 4b bf e6 84 5b bf 6b d9 56 3f
       -0.77952915 -0.7957954 -0.8574966 0.83925503
000180 95 3f 56 bf d1 45 29 bf 94 3c 3d 3f c7 3b 20 bf
       -0.8369077 -0.66122156 0.7392056 -0.62591213
000190 ad 4a 33 3f e0 f2 3e bf a3 95 47 bf d8 f4 5c bf
       0.7003582 -0.7458935 -0.779627 -0.863111
0001a0 bf d6 58 bf 2d fa 42 bf 64 b1 42 bf ca 06 3e 3f
       -0.84702677 -0.7616299 -0.76051927 0.7422911
0001b0 08 94 4d 3f 18 89 58 bf a9 68 5c bf 5d 3d 49 bf
       0.80304 -0.8458419 -0.860972 -0.7860926
0001c0 1f b3 58 bf b3 65 38 bf 74 e1 22 bf 10 e2 44 bf
       -0.8464832 -0.7203018 -0.63625264 -0.76907444
0001d0 e6 c2 2f bf c9 de 28 3f 4e 6f 54 bf 51 7d 46 3f
       -0.68656766 0.65964943 -0.8298234 0.7753497
0001e0 91 82 3d 3f 8c 4f 31 3f 97 ab 58 3f 70 86 58 bf
       0.74027354 0.69262004 0.84636825 -0.84580135
0001f0 8f 55 59 bf 13 35 50 3f 2f de 5a 3f bc b5 48 3f
       -0.8489618 0.81330985 0.85495275 0.78402305
000200 d0 7b 4b bf c6 ed 26 bf 47 99 51 3f d0 ab 1d bf
       -0.794858 -0.65206563 0.8187451 -0.6159029
000210 2d 1c 50 bf 95 89 1b bf af a5 11 bf 67 59 5f 3f
       -0.8129299 -0.6075681 -0.5689344 0.8724579
000220 a6 a8 39 3f 87 4e 35 3f 8e 80 45 3f 85 64 5c bf
       0.7252296 0.7082295 0.77149284 -0.8609088
000230 66 e5 44 3f 5c d6 4a 3f b5 e7 5b 3f 58 3c 39 3f
       0.76912534 0.79233336 0.8590043 0.723577
000240 95 6c 3a bf 99 84 1a 3f 7e bd 2b 3f ba 4d 47 bf
       -0.72821933 0.6035858 0.6708602 -0.77852976
000250 5d 39 40 bf d7 ef 3e 3f a5 1e 3c bf 43 01 23 bf
       -0.7508753 0.74584717 -0.7348426 -0.636738
000260 73 df 23 3f 86 ba 2f 3f 20 2a 2f 3f dc 5b 32 3f
       0.6401283 0.6864399 0.6842365 0.69671416
000270 be 84 64 bf a1 10 4c bf a0 31 27 bf c4 c5 3e 3f
       -0.8926505 -0.79712874 -0.65310097 0.74520516
000280 b9 61 60 bf 3e 37 3f bf f2 fd 42 3f 5e 00 62 bf
       -0.8764911 -0.7469367 0.7616874 -0.8828181
000290 18 dd 42 3f 25 a2 52 bf da 55 30 bf 76 91 4b bf
       0.7611861 -0.8227866 -0.68881 -0.7951883
0002a0 50 63 59 bf 11 f1 42 bf 61 1e 3c bf 26 57 28 3f
       -0.84917164 -0.7614909 -0.73483855 0.6575798
0002b0 95 04 3f 3f 8f eb 21 bf ac 52 3f bf 15 9a 1f bf
       0.74616367 -0.6325006 -0.7473552 -0.62344486
0002c0 ac d3 4f bf dc 77 16 bf df b6 42 bf 83 c1 21 bf
       -0.8118236 -0.5877664 -0.7606029 -0.631859
0002d0 27 81 40 bf 6e 79 46 3f 53 7d 3d bf 04 05 38 3f
       -0.7519707 0.77529037 -0.74019355 0.71882653
0002e0 55 8b 60 3f 1a ba 4e 3f 3d f2 5f 3f 6b 14 2e bf
       0.87712604 0.8075272 0.87479 -0.67999905
0002f0 1b 3e 42 bf ef f0 3d 3f ba 50 21 3f 84 50 53 3f
       -0.75876015 0.7419576 0.63013804 0.8254473
000300 7a 2a 3f 3f 76 11 29 3f 75 76 3c bf a1 1e 4d 3f
       0.7467419 0.6604227 -0.7361825 0.8012486
000310 d4 5d 34 3f f1 52 29 3f 9c 1a 2f 3f 43 b6 43 bf
       0.7045567 0.66142184 0.6839998 -0.76449984
000320 0a e3 4f bf 4e a3 33 bf bd f2 50 bf 44 72 57 3f
       -0.8120581 -0.7017106 -0.8162039 0.8415873
000330 c4 ce 36 bf cf 1d 5c bf e9 8a 2a bf 57 e8 3a bf
       -0.7140925 -0.85982984 -0.6661821 -0.7301077
000340 5f 5e 5d 3f cb fb 32 bf f3 d6 60 bf ae aa 51 3f
       0.86472124 -0.69915456 -0.87827986 0.8190106
000350 21 c9 52 3f f1 60 47 bf 8f 0b 45 3f 0b 66 2d 3f
       0.8233815 -0.77882296 0.7697076 0.6773383
000360 ec 2e 3a bf 6b e7 4b bf 81 b8 2b bf 28 30 24 bf
       -0.7272785 -0.7964999 -0.67078406 -0.6413598
000370 4e b1 43 3f 79 ae 46 3f b4 2b 53 3f 56 5e 56 bf
       0.7644242 0.77609974 0.8248856 -0.83737695
000380 4b 6c 3c 3f b7 d3 33 3f 66 8c 4f bf e8 6f 46 3f
       0.7360274 0.70244926 -0.81073606 0.77514505
000390 b6 c4 54 bf 82 64 59 3f 14 5c 50 3f a4 a8 5d 3f
       -0.8311266 0.8491899 0.813905 0.8658545
0003a0 30 5c 5a 3f 9f 08 5c 3f b7 5c 4b 3f 0d ee 29 bf
       0.85296917 0.85950655 0.79438347 -0.6637886
0003b0 44 b8 37 bf 07 c0 40 3f 7d a2 37 3f 82 76 55 3f
       -0.7176554 0.7529301 0.7173231 0.83383954
0003c0 c3 6b 55 3f 48 1c 55 3f 65 0b 59 3f 86 c4 5d 3f
       0.83367556 0.8324628 0.8478301 0.86627996
0003d0 81 db 53 3f 09 b4 22 bf 95 dc 28 3f f8 d3 3d bf
       0.8275681 -0.6355596 0.6596158 -0.74151564
0003e0 00 f6 59 bf 42 95 22 bf 90 08 3b bf de c7 4c 3f
       -0.8514099 -0.63509 -0.7305994 0.79992473
0003f0 03 d7 46 3f 15 8b 35 bf 82 0f 2e bf 3a 74 44 bf
       0.7767183 -0.7091535 -0.67992413 -0.7673985
