src/models/disentangle/learn_W.pth (torch, 17628 bytes, 1 tensors)

W.weight f4 [64, 64]
000000 a8 b6 5c bf 63 66 38 bf c2 58 30 3f f3 f3 62 3f
       -0.8621621 -0.7203123 0.68885434 0.88653487
000010 f1 1c 45 3f ca 0e 64 3f f2 bc 41 3f 6a d4 36 bf
       0.76997286 0.89085066 0.7567893 -0.7141787
000020 78 10 5d bf 6d 95 52 bf 9f 29 5b bf 87 15 4d bf
       -0.86353254 -0.82259256 -0.85610384 -0.80110973
000030 0c f3 58 3f c5 09 3b bf 27 df 62 3f 7b 0a 60 bf
       0.8474586 -0.7306178 0.88621753 -0.8751599
000040 8c 0c 52 bf 97 75 5b bf d0 12 4f bf e3 99 47 3f
       -0.82050395 -0.857263 -0.8088808 0.7796919
000050 e0 c4 60 bf 9b 4b 46 3f 5d be 32 bf 82 77 62 3f
       -0.8780041 0.77459115 -0.6982172 0.88463604
000060 37 41 36 bf eb 09 4e bf 78 23 49 bf 14 35 3d bf
       -0.7119326 -0.80483884 -0.78569746 -0.73909116
000070 98 ad 35 3f bd b4 3f 3f a3 7f 3b 3f 00 a1 51 bf
       0.7096801 0.7488516 0.73241633 -0.8188629
000080 79 45 63 3f 6d 74 34 3f 0b c1 2e bf dd 8e 55 bf
       0.8877788 0.7049015 -0.6826331 -0.8342112
000090 cf ad 2f bf 4d f2 2e 3f cb 52 31 bf 39 9c 32 3f
       -0.68624586 0.6833847 -0.6926696 0.69769627
0000a0 3e fa 5d bf be b2 5e bf 8d 4e 2c bf 0c 4d 37 bf
       -0.86709964 -0.8699149 -0.6730736 -0.7160194
0000b0 ec de 60 3f 33 e9 56 bf 24 30 2f 3f bb d7 43 bf
       0.8784015 -0.83949584 0.6843283 -0.76501054
0000c0 e3 e9 4c 3f 76 92 61 bf 90 e3 51 3f 5a a2 65 3f
       0.8004438 -0.88114107 0.8198786 0.89700854
0000d0 d9 9d 59 3f 26 89 69 bf e3 46 38 3f 37 95 3c 3f
       0.8500648 -0.91224897 0.71983165 0.73665184
0000e0 43 3b 66 bf 3c 77 43 bf cd de 50 3f dd 46 64 bf
       -0.89934176 -0.7635381 0.81589967 -0.8917063
0000f0 72 fa 64 3f 0e 1a 34 3f 21 f9 29 3f ee 87 34 3f
       0.8944465 0.70352256 0.66395766 0.7051991
000100 ce b0 5f bf d0 50 4e bf cd d4 57 3f 7d 14 5d 3f
       -0.8737916 -0.8059206 0.84309083 0.8635939
000110 9f d4 4d 3f 95 14 56 3f 89 1e 54 3f 05 7d 5d bf
       0.8040256 0.83625156 0.8285909 -0.8651889
000120 1d 52 5b bf d8 ae 4b bf d9 04 34 bf 6c 46 32 bf
       -0.8567217 -0.79563665 -0.70319897 -0.69638705
000130 13 10 43 3f d3 f3 4d bf 37 76 4e 3f 73 c0 5b bf
       0.761964 -0.8045017 0.8064913 -0.8584053
000140 72 90 5b bf 10 a5 4b bf b1 0b 65 bf 9c d5 53 3f
       -0.8576728 -0.7954874 -0.89470965 0.8274782
000150 09 79 44 bf 99 17 48 3f fe 4c 41 bf d0 cb 33 3f
       -0.76747185 0.7816101 -0.75508106 0.7023287
000160 5c 89 64 bf 17 4d 50 bf 71 8b 55 bf f2 ce 38 bf
       -0.89272094 -0.8136763 -0.83415896 -0.72190773
000170 d6 e6 34 3f 2a b9 35 3f 1a a9 5e 3f b3 a8 49 bf
       0.7066473 0.7098566 0.8697678 -0.7877304
000180 70 0a 45 3f b5 a2 55 3f 96 ef 34 bf d7 83 5f bf
       0.7696905 0.83451396 -0.7067808 -0.87310547
000190 74 cb 3a bf 81 8c 61 3f 44 71 4c bf a1 4a 4e 3f
       -0.72966695 0.88105017 -0.7986033 0.80582625
0001a0 d4 d3 38 bf e6 de 27 bf b9 d0 60 bf 78 54 5b bf
       -0.72198224 -0.6557449 -0.87818485 -0.85675764
0001b0 87 5c 4c 3f 7c c4 4f bf 18 59 29 3f 6f f6 4d bf
       0.79828686 -0.81159186 0.6615157 -0.8045415
0001c0 90 e2 55 3f 6c af 4f bf 78 c6 36 3f 40 7a 63 3f
       0.8354883 -0.8112705 0.7139659 0.88858414
0001d0 4c ec 60 3f 4b 41 5a bf 7d 6f 4a 3f c0 5b 6a 3f
       0.8786056 -0.8525588 0.7907637 0.9154625
0001e0 8e 2c 3c bf 59 68 4c bf ed c1 47 3f 64 22 2e bf
       -0.73505485 -0.7984672 0.7803028 -0.68021226
0001f0 f0 89 3d 3f bf bd 3b 3f 6c ae 30 3f 08 c8 44 3f
       0.740386 0.73336405 0.69016147 0.76867723
000200 bd 45 50 3f 69 d3 3a 3f a9 e6 34 bf 31 f0 48 bf
       0.8135641 0.72978836 -0.7066446 -0.78491503
000210 e1 32 50 bf 32 35 53 bf 5b 28 47 bf e0 be 66 3f
       -0.81327635 -0.82503045 -0.7779595 0.90135
000220 96 2d 3b 3f 74 55 4b 3f ff a9 55 3f 0b 18 60 3f
       0.73116434 0.79427266 0.8346252 0.87536687
000230 c5 75 3d bf 05 65 2e 3f 64 f6 4e bf 24 41 4a 3f
       -0.7400783 0.68122894 -0.8084471 0.79005647
000240 9f 54 5c 3f cc 04 47 3f 24 e2 4c 3f 7c ca 55 bf
       0.8606662 0.77741694 0.80032563 -0.8351209
000250 49 e8 53 3f f5 8c 58 bf 0d 3c 50 3f 29 74 63 bf
       0.82776314 -0.84590083 0.8134163 -0.8884912
000260 0a 26 52 3f 90 12 65 3f 03 4b 27 3f 31 95 48 3f
       0.82089293 0.8948145 0.65348834 0.7835265
000270 bb d5 4c bf c8 bb 3c bf 9e ab 32 bf 4a d0 3c 3f
       -0.80013627 -0.7372403 -0.6979312 0.73755324
000280 6c 34 2e bf d1 e4 52 bf 6e 8e 4c 3f 36 8e 30 3f
       -0.6804874 -0.82380396 0.7990483 0.68966997
000290 44 5c 58 3f 5a e6 65 bf a3 96 35 3f 56 cf 63 bf
       0.84515786 -0.89804614 0.7093298 -0.88988245
0002a0 d7 c8 48 3f e3 b8 5a 3f 5b b0 5a 3f 1b b6 4d 3f
       0.7843146 0.85438365 0.8542535 0.80355996
0002b0 2f 24 2a bf c7 87 4e 3f fa c6 34 bf 03 cc 59 3f
       -0.6646146 0.8067593 -0.70616114 0.8507692
0002c0 d4 08 36 bf 26 b6 2d 3f f7 67 36 bf 6d a9 60 bf
       -0.7110722 0.6785606 -0.7125239 -0.87758523
0002d0 9a 22 52 bf 9c 76 3b 3f 2d a6 51 bf bc 25 40 bf
       -0.8208405 0.7322786 -0.8189419 -0.7505758
0002e0 5c 82 41 3f 90 bd 43 3f f6 f7 55 bf 17 ee 65 3f
       0.7558954 0.76461124 -0.83581483 0.8981642
0002f0 3c ff 52 bf d3 e8 43 bf 23 82 5b bf 49 85 47 bf
       -0.82420707 -0.76527137 -0.8574545 -0.7793775
000300 30 d6 3b 3f c0 0e 37 3f 8c dd 37 bf f7 8c 3e bf
       0.733737 0.7150688 -0.7182243 -0.74433845
000310 4f bc 5f bf 04 f8 4f bf 1c a3 5b bf cd 0a 44 3f
       -0.8739671 -0.81237817 -0.8579576 0.7657898
000320 b1 36 62 3f 2b e1 55 3f e4 05 54 3f 9b bb 39 3f
       0.883647 0.83546704 0.8282149 0.7255189
000330 33 d6 31 bf 73 14 57 3f 65 22 4d bf 25 d8 51 3f
       -0.6946747 0.8401558 -0.80130607 0.81970435
000340 75 7b 2c 3f 42 bd 33 3f 15 a1 58 3f 34 64 22 bf
       0.6737588 0.7021066 0.8462079 -0.6343415
000350 a9 0e 54 3f 30 7e 59 bf d7 fa 62 3f 61 37 56 bf
       0.8283487 -0.8495817 0.88664 -0.8367825
000360 1e 10 68 3f 1c 8f 30 3f f7 83 49 3f 15 e9 54 3f
       0.9064959 0.6896837 0.7871699 0.83168155
000370 69 87 67 bf 9c 87 63 bf 60 1d 64 bf 8e 6c 42 3f
       -0.90440995 -0.888788 -0.8910732 0.7594689
000380 24 d1 47 bf eb 58 2d bf 7c c3 44 3f ec cc 41 3f
       -0.780535 -0.67713803 0.76860785 0.7570331
000390 0b 19 5b 3f 88 22 3f bf d3 87 2e 3f 4e 6a 61 bf
       0.8558509 -0.74662066 0.68176 -0.88052833
0003a0 5a 45 56 3f ee 2f 3a 3f 10 d9 58 3f 64 16 47 3f
       0.8369957 0.72729385 0.8470621 0.7776854
0003b0 08 d2 61 bf 98 5f 2e 3f cb 1e 55 bf 2f 64 55 3f
       -0.8821111 0.68114614 -0.8325011 0.83355993
0003c0 06 bf 3a bf 1b 13 62 3f 75 34 53 bf c1 8c 4b bf
       -0.7294773 0.883104 -0.8250192 -0.7951165
0003d0 3e 77 61 bf 42 07 59 3f 9b 17 2f bf 58 80 4f bf
       -0.88072574 0.847767 -0.68395394 -0.8105521
0003e0 b7 93 49 3f af 52 3e 3f 00 35 55 bf 7d 70 3d 3f
       0.7874102 0.74344915 -0.83283997 0.7399977
0003f0 68 98 4f bf 73 5e 34 bf 8c 06 66 bf 52 b0 5f bf
       -0.8109193 -0.7045662 -0.8985374 -0.8737842
